…
ts.DEFAULT` to get the most up-to-date weights.\n",
      "  warnings.warn(msg)\n"
     ]
    },
    {
     "name": "stdout",
     "output_type": "stream",
     "text": [
      "Downloading: \"https://download.pytorch.org/models/alexnet-owt-7be5be79.pth\" to /root/.cache/torch/hub/checkpoints/alexnet-owt-7be5be79.pth\n"
     ]
    },
    {
     "name": "stderr",
     "output_type": "stream",
     "text": [
      "100%|██████████| 233M/233M [00:01<00:00, 165MB/s]\n"
     ]
    },
    {
     "data": {
      "text/plain": [
       "AlexNet(\n",
       "  (features): Sequential(\n",
       "    (0): Conv2d(3, 64, kernel_size=(11, 11), stride=(4, 4), padding=(2, 2))\n",
       "    (1): ReLU(inplace=True)\n",
       "    (2): MaxPool2d(kernel_size=3, stride=2, padding=0, dilation=1, ceil_mode=False)\n",
       "    (3): Conv2d(64, 192, kernel_size=(5, 5), stride=(1, 1), padding=(2, 2))\n",
       "    (4): ReLU(inplace=True)\n",
       "    (5): MaxPool2d(kernel_size=3, stride=2, padding=0, dilation=1, ceil_mode=False)\n",
       "    (6): Conv2d(192, 384, kernel_size=(3, 3), stride=(1, 1), padding=(1, 1))\n",
       "    (7): ReLU(inplace=True)\n",
       "    (8): Conv2d(384, 256, kernel_size=(3, 3), stride=(1, 1), padding=(1, 1))\n",
       "    (9): ReLU(inplace=True)\n",
       "    (10): Conv2d(256, 256, kernel_size=(3, 3), stride=(1, 1), padding=(1, 1))\n",
       "    (11): ReLU(inplace=True)\n",
       "    (12): MaxPool2d(kernel_size=3, stride=2, padding=0, dilation=1, ceil_mode=False)\n",
       "  )\n",
       "  (avgpool): AdaptiveAvgPool2d(output_size=(6, 6))\n",
       "  (classifier): Sequential(\n",
       "    (0): Dropout(p=0.5, inplace=False)\n",
       "    (1): Linear(in_features=9216, out_features=4096, bias=True)\n",
       "    (2): ReLU(inplace=True)\n",
       "    (3): Dropout(p=0.5, inplace=False)\n",
       "    (4): Linear(in_features=4096, out_features=4096, bias=True)\n",
       "    (5): ReLU(inplace=True)\n",
       "  )\n",
       ")"
      ]
     },
     "execution_count": 5,
     "metadata": {},
     "output_type": "execute_result"
    }
   ],
   "source": [
    "import torch.nn as nn\n",
    "from torchvision import models\n",
    "\n",
    "alexnet = models.alexnet(pretrained=True)\n",
    "\n",
    "# Remove final classification layer\n",
…
      "Downloading: \"https://download.pytorch.org/models/fasterrcnn_resnet50_fpn_coco-258fb6c6.pth\" to /root/.cache/torch/hub/checkpoints/fasterrcnn_resnet50_fpn_coco-258fb6c6.pth\n"
     ]
    },
    {
     "name": "stderr",
     "output_type": "stream",
     "text": [
      "100%|██████████| 160M/160M [00:00<00:00, 181MB/s]\n"
     ]
    },
    {
     "data": {
      "text/plain": [
       "FasterRCNN(\n",
       "  (transform): GeneralizedRCNNTransform(\n",
       "      Normalize(mean=[0.485, 0.456, 0.406], std=[0.229, 0.224, 0.225])\n",
       "      Resize(min_size=(800,), max_size=1333, mode='bilinear')\n",
       "  )\n",
       "  (backbone): BackboneWithFPN(\n",
       "    (body): IntermediateLayerGetter(\n",
       "      (conv1): Conv2d(3, 64, kernel_size=(7, 7), stride=(2, 2), padding=(3, 3), bias=False)\n",
       "      (bn1): FrozenBatchNorm2d(64, eps=0.0)\n",
       "      (relu): ReLU(inplace=True)\n",
       "      (maxpool): MaxPool2d(kernel_size=3, stride=2, padding=1, dilation=1, ceil_mode=False)\n",
       "      (layer1): Sequential(\n",
       "        (0): Bottleneck(\n",
       "          (conv1): Conv2d(64, 64, kernel_size=(1, 1), stride=(1, 1), bias=False)\n",
       "          (bn1): FrozenBatchNorm2d(64, eps=0.0)\n",
       "          (conv2): Conv2d(64, 64, kernel_size=(3, 3), stride=(1, 1), padding=(1, 1), bias=False)\n",
       "          (bn2): FrozenBatchNorm2d(64, eps=0.0)\n",
       "          (conv3): Conv2d(64, 256, kernel_size=(1, 1), stride=(1, 1), bias=False)\n",
       "          (bn3): FrozenBatchNorm2d(256, eps=0.0)\n",
       "          (relu): ReLU(inplace=True)\n",
       "          (downsample): Sequential(\n",
       "            (0): Conv2d(64, 256, kernel_size=(1, 1), stride=(1, 1), bias=False)\n",
       "            (1): FrozenBatchNorm2d(256, eps=0.0)\n",
       "          )\n",
       "        )\n",
       "        (1): Bottleneck(\n",
       "          (conv1): Conv2d(256, 64, kernel_size=(1, 1), stride=(1, 1), bias=False)\n",
       "          (bn1): FrozenBatchNorm2d(64, eps=0.0)\n",
       "          (conv2): Conv2d(64, 64, kernel_size=(3, 3), stride=(1, 1), padding=(1, 1), bias=False)\n",
       "          (bn2): FrozenBatchNorm2d(64, eps=0.0)\n",
       "          (conv3): Conv2d(64, 256, kernel_size=(1, 1), stride=(1, 1), bias=False)\n",
       "          (bn3): FrozenBatchNorm2d(256, eps=0.0)\n",
       "          (relu): ReLU(inplace=True)\n",
       "        )\n",
       "        (2): Bottleneck(\n",
       "          (conv1): Conv2d(256, 64, kernel_size=(1, 1), stride=(1, 1), bias=False)\n",
       "          (bn1): FrozenBatchNorm2d(64, eps=0.0)\n",
       "          (conv2): Conv2d(64, 64, kernel_size=(3, 3), stride=(1, 1), padding=(1, 1), bias=False)\n",
       "          (bn2): FrozenBatchNorm2d(64, eps=0.0)\n",
       "          (conv3): Conv2d(64, 256, kernel_size=(1, 1), stride=(1, 1), bias=False)\n",
       "          (bn3): FrozenBatchNorm2d(256, eps=0.0)\n",
       "          (relu): ReLU(inplace=True)\n",
       "        )\n",
       "      )\n",
       "      (layer2): Sequential(\n",
       "        (0): Bottleneck(\n",
       "          (conv1): Conv2d(256, 128, kernel_size=(1, 1), stride=(1, 1), bias=False)\n",
       "          (bn1): FrozenBatchNorm2d(128, eps=0.0)\n",
       "          (conv2): Conv2d(128, 128, kernel_size=(3, 3), stride=(2, 2), padding=(1, 1), bias=False)\n",
       "          (bn2): FrozenBatchNorm2d(128, eps=0.0)\n",
       "          (conv3): Conv2d(128, 512, kernel_size=(1, 1), stride=(1, 1), bias=False)\n",
       "          (bn3): FrozenBatchNorm2d(512, eps=0.0)\n",
       "          (relu): ReLU(inplace=True)\n",
       "          (downsample): Sequential(\n",
       "            (0): Conv2d(256, 512, kernel_size=(1, 1), stride=(2, 2), bias=False)\n",
       "            (1): FrozenBatchNorm2d(512, eps=0.0)\n",
       "          )\n",
       "        )\n",
       "        (1): Bottleneck(\n",
       "          (conv1): Conv2d(512, 128, kernel_size=(1, 1), stride=(1, 1), bias=False)\n",
       "          (bn1): FrozenBatchNorm2d(128, eps=0.0)\n",
       "          (conv2): Conv2d(128, 128, kernel_size=(3, 3), stride=(1, 1), padding=(1, 1), bias=False)\n",
       "          (bn2): FrozenBatchNorm2d(128, eps=0.0)\n",
       "          (conv3): Conv2d(128, 512, kernel_size=(1, 1), stride=(1, 1), bias=False)\n",
       "          (bn3): FrozenBatchNorm2d(512, eps=0.0)\n",
       "          (relu): ReLU(inplace=True)\n",
       "        )\n",
       "        (2): Bottleneck(\n",
       "          (conv1): Conv2d(512, 128, kernel_size=(1, 1), stride=(1, 1), bias=False)\n",
       "          (bn1): FrozenBatchNorm2d(128, eps=0.0)\n",
       "          (conv2): Conv2d(128, 128, kernel_size=(3, 3), stride=(1, 1), padding=(1, 1), bias=False)\n",
       "          (bn2): FrozenBatchNorm2d(128, eps=0.0)\n",
       "          (conv3): Conv2d(128, 512, kernel_size=(1, 1), stride=(1, 1), bias=False)\n",
       "          (bn3): FrozenBatchNorm2d(512, eps=0.0)\n",
       "          (relu): ReLU(inplace=True)\n",
       "        )\n",
       "        (3): Bottleneck(\n",
       "          (conv1): Conv2d(512, 128, kernel_size=(1, 1), stride=(1, 1), bias=False)\n",
       "          (bn1): FrozenBatchNorm2d(128, eps=0.0)\n",
       "          (conv2): Conv2d(128, 128, kernel_size=(3, 3), stride=(1, 1), padding=(1, 1), bias=False)\n",
       "          (bn2): FrozenBatchNorm2d(128, eps=0.0)\n",
       "          (conv3): Conv2d(128, 512, kernel_size=(1, 1), stride=(1, 1), bias=False)\n",
       "          (bn3): FrozenBatchNorm2d(512, eps=0.0)\n",
       "          (relu): ReLU(inplace=True)\n",
       "        )\n",
       "      )\n",
       "      (layer3): Sequential(\n",
       "        (0): Bottleneck(\n",
       "          (conv1): Conv2d(512, 256, kernel_size=(1, 1), stride=(1, 1), bias=False)\n",
       "          (bn1): FrozenBatchNorm2d(256, eps=0.0)\n",
       "          (conv2): Conv2d(256, 256, kernel_size=(3, 3), stride=(2, 2), padding=(1, 1), bias=False)\n",
       "          (bn2): FrozenBatchNorm2d(256, eps=0.0)\n",
       "          (conv3): Conv2d(256, 1024, kernel_size=(1, 1), stride=(1, 1), bias=False)\n",
       "          (bn3): FrozenBatchNorm2d(1024, eps=0.0)\n",
       "          (relu): ReLU(inplace=True)\n",
       "          (downsample): Sequential(\n",
       "            (0): Conv2d(512, 1024, kernel_size=(1, 1), stride=(2, 2), bias=False)\n",
       "            (1): FrozenBatchNorm2d(1024, eps=0.0)\n",
       "          )\n",
       "        )\n",
       "        (1): Bottleneck(\n",
       "          (conv1): Conv2d(1024, 256, kernel_size=(1, 1), stride=(1, 1), bias=False)\n",
       "          (bn1): FrozenBatchNorm2d(256, eps=0.0)\n",
       "          (conv2): Conv2d(256, 256, kernel_size=(3, 3), stride=(1, 1), padding=(1, 1), bias=False)\n",
       "          (bn2): FrozenBatchNorm2d(256, eps=0.0)\n",
       "          (conv3): Conv2d(256, 1024, kernel_size=(1, 1), stride=(1, 1), bias=False)\n",
       "          (bn3): FrozenBatchNorm2d(1024, eps=0.0)\n",
       "          (relu): ReLU(inplace=True)\n",
       "        )\n",
       "        (2): Bottleneck(\n",
       "          (conv1): Conv2d(1024, 256, kernel_size=(1, 1), stride=(1, 1), bias=False)\n",
       "          (bn1): FrozenBatchNorm2d(256, eps=0.0)\n",
       "          (conv2): Conv2d(256, 256, kernel_size=(3, 3), stride=(1, 1), padding=(1, 1), bias=False)\n",
       "          (bn2): FrozenBatchNorm2d(256, eps=0.0)\n",
       "          (conv3): Conv2d(256, 1024, kernel_size=(1, 1), stride=(1, 1), bias=False)\n",
       "          (bn3): FrozenBatchNorm2d(1024, eps=0.0)\n",
       "          (relu): ReLU(inplace=True)\n",
       "        )\n",
       "        (3): Bottleneck(\n",
       "          (conv1): Conv2d(1024, 256, kernel_size=(1, 1), stride=(1, 1), bias=False)\n",
       "          (bn1): FrozenBatchNorm2d(256, eps=0.0)\n",
       "          (conv2): Conv2d(256, 256, kernel_size=(3, 3), stride=(1, 1), padding=(1, 1), bias=False)\n",
       "          (bn2): FrozenBatchNorm2d(256, eps=0.0)\n",
       "          (conv3): Conv2d(256, 1024, kernel_size=(1, 1), stride=(1, 1), bias=False)\n",
       "          (bn3): FrozenBatchNorm2d(1024, eps=0.0)\n",
       "          (relu): ReLU(inplace=True)\n",
       "        )\n",
       "        (4): Bottleneck(\n",
       "          (conv1): Conv2d(1024, 256, kernel_size=(1, 1), stride=(1, 1), bias=False)\n",
       "          (bn1): FrozenBatchNorm2d(256, eps=0.0)\n",
       "          (conv2): Conv2d(256, 256, kernel_size=(3, 3), stride=(1, 1), padding=(1, 1), bias=False)\n",
       "          (bn2): FrozenBatchNorm2d(256, eps=0.0)\n",
       "          (conv3): Conv2d(256, 1024, kernel_size=(1, 1), stride=(1, 1), bias=False)\n",
       "          (bn3): FrozenBatchNorm2d(1024, eps=0.0)\n",
       "          (relu): ReLU(inplace=True)\n",
       "        )\n",
       "        (5): Bottleneck(\n",
       "          (conv1): Conv2d(1024, 256, kernel_size=(1, 1), stride=(1, 1), bias=False)\n",
       "          (bn1): FrozenBatchNorm2d(256, eps=0.0)\n",
       "          (conv2): Conv2d(256, 256, kernel_size=(3, 3), stride=(1, 1), padding=(1, 1), bias=False)\n",
       "          (bn2): FrozenBatchNorm2d(256, eps=0.0)\n",
       "          (conv3): Conv2d(256, 1024, kernel_size=(1, 1), stride=(1, 1), bias=False)\n",
       "          (bn3): FrozenBatchNorm2d(1024, eps=0.0)\n",
       "          (relu): ReLU(inplace=True)\n",
       "        )\n",
       "      )\n",
       "      (layer4): Sequential(\n",
       "        (0): Bottleneck(\n",
       "          (conv1): Conv2d(1024, 512, kernel_size=(1, 1), stride=(1, 1), bias=False)\n",
       "          (bn1): FrozenBatchNorm2d(512, eps=0.0)\n",
       "          (conv2): Conv2d(512, 512, kernel_size=(3, 3), stride=(2, 2), padding=(1, 1), bias=False)\n",
       "          (bn2): FrozenBatchNorm2d(512, eps=0.0)\n",
       "          (conv3): Conv2d(512, 2048, kernel_size=(1, 1), stride=(1, 1), bias=False)\n",
       "          (bn3): FrozenBatchNorm2d(2048, eps=0.0)\n",
       "          (relu): ReLU(inplace=True)\n",
       "          (downsample): Sequential(\n",
       "            (0): Conv2d(1024, 2048, kernel_size=(1, 1), stride=(2, 2), bias=False)\n",
       "            (1): FrozenBatchNorm2d(2048, eps=0.0)\n",
       "          )\n",
       "        )\n",
       "        (1): Bottleneck(\n",
       "          (conv1): Conv2d(2048, 512, kernel_size=(1, 1), stride=(1, 1), bias=False)\n",
       "          (bn1): FrozenBatchNorm2d(512, eps=0.0)\n",
       "          (conv2): Conv2d(512, 512, kernel_size=(3, 3), stride=(1, 1), padding=(1, 1), bias=False)\n",
       "          (bn2): FrozenBatchNorm2d(512, eps=0.0)\n",
       "          (conv3): Conv2d(512, 2048, kernel_size=(1, 1), stride=(1, 1), bias=False)\n",
       "          (bn3): FrozenBatchNorm2d(2048, eps=0.0)\n",
       "          (relu): ReLU(inplace=True)\n",
       "        )\n",
       "        (2): Bottleneck(\n",
       "          (conv1): Conv2d(2048, 512, kernel_size=(1, 1), stride=(1, 1), bias=False)\n",
       "          (bn1): FrozenBatchNorm2d(512, eps=0.0)\n",
       "          (conv2): Conv2d(512, 512, kernel_size=(3, 3), stride=(1, 1), padding=(1, 1), bias=False)\n",
       "          (bn2): FrozenBatchNorm2d(512, eps=0.0)\n",
       "          (conv3): Conv2d(512, 2048, kernel_size=(1, 1), stride=(1, 1), bias=False)\n",
       "          (bn3): FrozenBatchNorm2d(2048, eps=0.0)\n",
       "          (relu): ReLU(inplace=True)\n",
       "        )\n",
       "      )\n",
       "    )\n",
       "    (fpn): FeaturePyramidNetwork(\n",
       "      (inner_blocks): ModuleList(\n",
       "        (0): Conv2dNormActivation(\n",
       "          (0): Conv2d(256, 256, kernel_size=(1, 1), stride=(1, 1))\n",
       "        )\n",
       "        (1): Conv2dNormActivation(\n",
       "          (0): Conv2d(512, 256, kernel_size=(1, 1), stride=(1, 1))\n",
       "        )\n",
       "        (2): Conv2dNormActivation(\n",
       "          (0): Conv2d(1024, 256, kernel_size=(1, 1), stride=(1, 1))\n",
       "        )\n",
       "        (3): Conv2dNormActivation(\n",
       "          (0): Conv2d(2048, 256, kernel_size=(1, 1), stride=(1, 1))\n",
       "        )\n",
       "      )\n",
       "      (layer_blocks): ModuleList(\n",
       "        (0-3): 4 x Conv2dNormActivation(\n",
       "          (0): Conv2d(256, 256, kernel_size=(3, 3), stride=(1, 1), padding=(1, 1))\n",
       "        )\n",
       "      )\n",
       "      (extra_blocks): LastLevelMaxPool()\n",
       "    )\n",
       "  )\n",
       "  (rpn): RegionProposalNetwork(\n",
       "    (anchor_generator): AnchorGenerator()\n",
       "    (head): RPNHead(\n",
       "      (conv): Sequential(\n",
       "        (0): Conv2dNormActivation(\n",
       "          (0): Conv2d(256, 256, kernel_size=(3, 3), stride=(1, 1), padding=(1, 1))\n",
       "          (1): ReLU(inplace=True)\n",
       "        )\n",
       "      )\n",
       "      (cls_logits): Conv2d(256, 3, kernel_size=(1, 1), stride=(1, 1))\n",
       "      (bbox_pred): Conv2d(256, 12, kernel_size=(1, 1), stride=(1, 1))\n",
       "    )\n",
       "  )\n",
       "  (roi_heads): RoIHeads(\n",
       "    (box_roi_pool): MultiScaleRoIAlign(featmap_names=['0', '1', '2', '3'], output_size=(7, 7), sampling_ratio=2)\n",
       "    (box_head): TwoMLPHead(\n",
       "      (fc6): Linear(in_features=12544, out_features=1024, bias=True)\n",
       "      (fc7): Linear(in_features=1024, out_features=1024, bias=True)\n",
       "    )\n",
       "    (box_predictor): FastRCNNPredictor(\n",
       "      (cls_score): Linear(in_features=1024, out_features=91, bias=True)\n",
       "      (bbox_pred): Linear(in_features=1024, out_features=364, bias=True)\n",
       "    )\n",
       "  )\n",
       ")"
      ]
     },
     "execution_count": 18,
     "metadata": {},
     "output_type": "execute_result"
    }
   ],
   "source": [
    "# Pretrained Mask R-CNN in PyTorch\n",
    "\n",
    "import torchvision\n",
    "from torchvision.models.detection import fasterrcnn_resnet50_fpn\n",
    "\n",
    "model = fasterrcnn_resnet50_fpn(pretrained=True)\n",
…
      "Downloading: \"https://download.pytorch.org/models/maskrcnn_resnet50_fpn_coco-bf2d0c1e.pth\" to /root/.cache/torch/hub/checkpoints/maskrcnn_resnet50_fpn_coco-bf2d0c1e.pth\n"
     ]
    },
    {
     "name": "stderr",
     "output_type": "stream",
     "text": [
      "100%|██████████| 170M/170M [00:01<00:00, 167MB/s]\n"
     ]
    },
    {
     "data": {
      "text/plain": [
       "MaskRCNN(\n",
       "  (transform): GeneralizedRCNNTransform(\n",
       "      Normalize(mean=[0.485, 0.456, 0.406], std=[0.229, 0.224, 0.225])\n",
       "      Resize(min_size=(800,), max_size=1333, mode='bilinear')\n",
       "  )\n",
       "  (backbone): BackboneWithFPN(\n",
       "    (body): IntermediateLayerGetter(\n",
       "      (conv1): Conv2d(3, 64, kernel_size=(7, 7), stride=(2, 2), padding=(3, 3), bias=False)\n",
       "      (bn1): FrozenBatchNorm2d(64, eps=0.0)\n",
       "      (relu): ReLU(inplace=True)\n",
       "      (maxpool): MaxPool2d(kernel_size=3, stride=2, padding=1, dilation=1, ceil_mode=False)\n",
       "      (layer1): Sequential(\n",
       "        (0): Bottleneck(\n",
       "          (conv1): Conv2d(64, 64, kernel_size=(1, 1), stride=(1, 1), bias=False)\n",
       "          (bn1): FrozenBatchNorm2d(64, eps=0.0)\n",
       "          (conv2): Conv2d(64, 64, kernel_size=(3, 3), stride=(1, 1), padding=(1, 1), bias=False)\n",
       "          (bn2): FrozenBatchNorm2d(64, eps=0.0)\n",
       "          (conv3): Conv2d(64, 256, kernel_size=(1, 1), stride=(1, 1), bias=False)\n",
       "          (bn3): FrozenBatchNorm2d(256, eps=0.0)\n",
       "          (relu): ReLU(inplace=True)\n",
       "          (downsample): Sequential(\n",
       "            (0): Conv2d(64, 256, kernel_size=(1, 1), stride=(1, 1), bias=False)\n",
       "            (1): FrozenBatchNorm2d(256, eps=0.0)\n",
       "          )\n",
       "        )\n",
       "        (1): Bottleneck(\n",
       "          (conv1): Conv2d(256, 64, kernel_size=(1, 1), stride=(1, 1), bias=False)\n",
       "          (bn1): FrozenBatchNorm2d(64, eps=0.0)\n",
       "          (conv2): Conv2d(64, 64, kernel_size=(3, 3), stride=(1, 1), padding=(1, 1), bias=False)\n",
       "          (bn2): FrozenBatchNorm2d(64, eps=0.0)\n",
       "          (conv3): Conv2d(64, 256, kernel_size=(1, 1), stride=(1, 1), bias=False)\n",
       "          (bn3): FrozenBatchNorm2d(256, eps=0.0)\n",
       "          (relu): ReLU(inplace=True)\n",
       "        )\n",
       "        (2): Bottleneck(\n",
       "          (conv1): Conv2d(256, 64, kernel_size=(1, 1), stride=(1, 1), bias=False)\n",
       "          (bn1): FrozenBatchNorm2d(64, eps=0.0)\n",
       "          (conv2): Conv2d(64, 64, kernel_size=(3, 3), stride=(1, 1), padding=(1, 1), bias=False)\n",
       "          (bn2): FrozenBatchNorm2d(64, eps=0.0)\n",
       "          (conv3): Conv2d(64, 256, kernel_size=(1, 1), stride=(1, 1), bias=False)\n",
       "          (bn3): FrozenBatchNorm2d(256, eps=0.0)\n",
       "          (relu): ReLU(inplace=True)\n",
       "        )\n",
       "      )\n",
       "      (layer2): Sequential(\n",
       "        (0): Bottleneck(\n",
       "          (conv1): Conv2d(256, 128, kernel_size=(1, 1), stride=(1, 1), bias=False)\n",
       "          (bn1): FrozenBatchNorm2d(128, eps=0.0)\n",
       "          (conv2): Conv2d(128, 128, kernel_size=(3, 3), stride=(2, 2), padding=(1, 1), bias=False)\n",
       "          (bn2): FrozenBatchNorm2d(128, eps=0.0)\n",
       "          (conv3): Conv2d(128, 512, kernel_size=(1, 1), stride=(1, 1), bias=False)\n",
       "          (bn3): FrozenBatchNorm2d(512, eps=0.0)\n",
       "          (relu): ReLU(inplace=True)\n",
       "          (downsample): Sequential(\n",
       "            (0): Conv2d(256, 512, kernel_size=(1, 1), stride=(2, 2), bias=False)\n",
       "            (1): FrozenBatchNorm2d(512, eps=0.0)\n",
       "          )\n",
       "        )\n",
       "        (1): Bottleneck(\n",
       "          (conv1): Conv2d(512, 128, kernel_size=(1, 1), stride=(1, 1), bias=False)\n",
       "          (bn1): FrozenBatchNorm2d(128, eps=0.0)\n",
       "          (conv2): Conv2d(128, 128, kernel_size=(3, 3), stride=(1, 1), padding=(1, 1), bias=False)\n",
       "          (bn2): FrozenBatchNorm2d(128, eps=0.0)\n",
       "          (conv3): Conv2d(128, 512, kernel_size=(1, 1), stride=(1, 1), bias=False)\n",
       "          (bn3): FrozenBatchNorm2d(512, eps=0.0)\n",
       "          (relu): ReLU(inplace=True)\n",
       "        )\n",
       "        (2): Bottleneck(\n",
       "          (conv1): Conv2d(512, 128, kernel_size=(1, 1), stride=(1, 1), bias=False)\n",
       "          (bn1): FrozenBatchNorm2d(128, eps=0.0)\n",
       "          (conv2): Conv2d(128, 128, kernel_size=(3, 3), stride=(1, 1), padding=(1, 1), bias=False)\n",
       "          (bn2): FrozenBatchNorm2d(128, eps=0.0)\n",
       "          (conv3): Conv2d(128, 512, kernel_size=(1, 1), stride=(1, 1), bias=False)\n",
       "          (bn3): FrozenBatchNorm2d(512, eps=0.0)\n",
       "          (relu): ReLU(inplace=True)\n",
       "        )\n",
       "        (3): Bottleneck(\n",
       "          (conv1): Conv2d(512, 128, kernel_size=(1, 1), stride=(1, 1), bias=False)\n",
       "          (bn1): FrozenBatchNorm2d(128, eps=0.0)\n",
       "          (conv2): Conv2d(128, 128, kernel_size=(3, 3), stride=(1, 1), padding=(1, 1), bias=False)\n",
       "          (bn2): FrozenBatchNorm2d(128, eps=0.0)\n",
       "          (conv3): Conv2d(128, 512, kernel_size=(1, 1), stride=(1, 1), bias=False)\n",
       "          (bn3): FrozenBatchNorm2d(512, eps=0.0)\n",
       "          (relu): ReLU(inplace=True)\n",
       "        )\n",
       "      )\n",
       "      (layer3): Sequential(\n",
       "        (0): Bottleneck(\n",
       "          (conv1): Conv2d(512, 256, kernel_size=(1, 1), stride=(1, 1), bias=False)\n",
       "          (bn1): FrozenBatchNorm2d(256, eps=0.0)\n",
       "          (conv2): Conv2d(256, 256, kernel_size=(3, 3), stride=(2, 2), padding=(1, 1), bias=False)\n",
       "          (bn2): FrozenBatchNorm2d(256, eps=0.0)\n",
       "          (conv3): Conv2d(256, 1024, kernel_size=(1, 1), stride=(1, 1), bias=False)\n",
       "          (bn3): FrozenBatchNorm2d(1024, eps=0.0)\n",
       "          (relu): ReLU(inplace=True)\n",
       "          (downsample): Sequential(\n",
       "            (0): Conv2d(512, 1024, kernel_size=(1, 1), stride=(2, 2), bias=False)\n",
       "            (1): FrozenBatchNorm2d(1024, eps=0.0)\n",
       "          )\n",
       "        )\n",
       "        (1): Bottleneck(\n",
       "          (conv1): Conv2d(1024, 256, kernel_size=(1, 1), stride=(1, 1), bias=False)\n",
       "          (bn1): FrozenBatchNorm2d(256, eps=0.0)\n",
       "          (conv2): Conv2d(256, 256, kernel_size=(3, 3), stride=(1, 1), padding=(1, 1), bias=False)\n",
       "          (bn2): FrozenBatchNorm2d(256, eps=0.0)\n",
       "          (conv3): Conv2d(256, 1024, kernel_size=(1, 1), stride=(1, 1), bias=False)\n",
       "          (bn3): FrozenBatchNorm2d(1024, eps=0.0)\n",
       "          (relu): ReLU(inplace=True)\n",
       "        )\n",
       "        (2): Bottleneck(\n",
       "          (conv1): Conv2d(1024, 256, kernel_size=(1, 1), stride=(1, 1), bias=False)\n",
       "          (bn1): FrozenBatchNorm2d(256, eps=0.0)\n",
       "          (conv2): Conv2d(256, 256, kernel_size=(3, 3), stride=(1, 1), padding=(1, 1), bias=False)\n",
       "          (bn2): FrozenBatchNorm2d(256, eps=0.0)\n",
       "          (conv3): Conv2d(256, 1024, kernel_size=(1, 1), stride=(1, 1), bias=False)\n",
       "          (bn3): FrozenBatchNorm2d(1024, eps=0.0)\n",
       "          (relu): ReLU(inplace=True)\n",
       "        )\n",
       "        (3): Bottleneck(\n",
       "          (conv1): Conv2d(1024, 256, kernel_size=(1, 1), stride=(1, 1), bias=False)\n",
       "          (bn1): FrozenBatchNorm2d(256, eps=0.0)\n",
       "          (conv2): Conv2d(256, 256, kernel_size=(3, 3), stride=(1, 1), padding=(1, 1), bias=False)\n",
       "          (bn2): FrozenBatchNorm2d(256, eps=0.0)\n",
       "          (conv3): Conv2d(256, 1024, kernel_size=(1, 1), stride=(1, 1), bias=False)\n",
       "          (bn3): FrozenBatchNorm2d(1024, eps=0.0)\n",
       "          (relu): ReLU(inplace=True)\n",
       "        )\n",
       "        (4): Bottleneck(\n",
       "          (conv1): Conv2d(1024, 256, kernel_size=(1, 1), stride=(1, 1), bias=False)\n",
       "          (bn1): FrozenBatchNorm2d(256, eps=0.0)\n",
       "          (conv2): Conv2d(256, 256, kernel_size=(3, 3), stride=(1, 1), padding=(1, 1), bias=False)\n",
       "          (bn2): FrozenBatchNorm2d(256, eps=0.0)\n",
       "          (conv3): Conv2d(256, 1024, kernel_size=(1, 1), stride=(1, 1), bias=False)\n",
       "          (bn3): FrozenBatchNorm2d(1024, eps=0.0)\n",
       "          (relu): ReLU(inplace=True)\n",
       "        )\n",
       "        (5): Bottleneck(\n",
       "          (conv1): Conv2d(1024, 256, kernel_size=(1, 1), stride=(1, 1), bias=False)\n",
       "          (bn1): FrozenBatchNorm2d(256, eps=0.0)\n",
       "          (conv2): Conv2d(256, 256, kernel_size=(3, 3), stride=(1, 1), padding=(1, 1), bias=False)\n",
       "          (bn2): FrozenBatchNorm2d(256, eps=0.0)\n",
       "          (conv3): Conv2d(256, 1024, kernel_size=(1, 1), stride=(1, 1), bias=False)\n",
       "          (bn3): FrozenBatchNorm2d(1024, eps=0.0)\n",
       "          (relu): ReLU(inplace=True)\n",
       "        )\n",
       "      )\n",
       "      (layer4): Sequential(\n",
       "        (0): Bottleneck(\n",
       "          (conv1): Conv2d(1024, 512, kernel_size=(1, 1), stride=(1, 1), bias=False)\n",
       "          (bn1): FrozenBatchNorm2d(512, eps=0.0)\n",
       "          (conv2): Conv2d(512, 512, kernel_size=(3, 3), stride=(2, 2), padding=(1, 1), bias=False)\n",
       "          (bn2): FrozenBatchNorm2d(512, eps=0.0)\n",
       "          (conv3): Conv2d(512, 2048, kernel_size=(1, 1), stride=(1, 1), bias=False)\n",
       "          (bn3): FrozenBatchNorm2d(2048, eps=0.0)\n",
       "          (relu): ReLU(inplace=True)\n",
       "          (downsample): Sequential(\n",
       "            (0): Conv2d(1024, 2048, kernel_size=(1, 1), stride=(2, 2), bias=False)\n",
       "            (1): FrozenBatchNorm2d(2048, eps=0.0)\n",
       "          )\n",
       "        )\n",
       "        (1): Bottleneck(\n",
       "          (conv1): Conv2d(2048, 512, kernel_size=(1, 1), stride=(1, 1), bias=False)\n",
       "          (bn1): FrozenBatchNorm2d(512, eps=0.0)\n",
       "          (conv2): Conv2d(512, 512, kernel_size=(3, 3), stride=(1, 1), padding=(1, 1), bias=False)\n",
       "          (bn2): FrozenBatchNorm2d(512, eps=0.0)\n",
       "          (conv3): Conv2d(512, 2048, kernel_size=(1, 1), stride=(1, 1), bias=False)\n",
       "          (bn3): FrozenBatchNorm2d(2048, eps=0.0)\n",
       "          (relu): ReLU(inplace=True)\n",
       "        )\n",
       "        (2): Bottleneck(\n",
       "          (conv1): Conv2d(2048, 512, kernel_size=(1, 1), stride=(1, 1), bias=False)\n",
       "          (bn1): FrozenBatchNorm2d(512, eps=0.0)\n",
       "          (conv2): Conv2d(512, 512, kernel_size=(3, 3), stride=(1, 1), padding=(1, 1), bias=False)\n",
       "          (bn2): FrozenBatchNorm2d(512, eps=0.0)\n",
       "          (conv3): Conv2d(512, 2048, kernel_size=(1, 1), stride=(1, 1), bias=False)\n",
       "          (bn3): FrozenBatchNorm2d(2048, eps=0.0)\n",
       "          (relu): ReLU(inplace=True)\n",
       "        )\n",
       "      )\n",
       "    )\n",
       "    (fpn): FeaturePyramidNetwork(\n",
       "      (inner_blocks): ModuleList(\n",
       "        (0): Conv2dNormActivation(\n",
       "          (0): Conv2d(256, 256, kernel_size=(1, 1), stride=(1, 1))\n",
       "        )\n",
       "        (1): Conv2dNormActivation(\n",
       "          (0): Conv2d(512, 256, kernel_size=(1, 1), stride=(1, 1))\n",
       "        )\n",
       "        (2): Conv2dNormActivation(\n",
       "          (0): Conv2d(1024, 256, kernel_size=(1, 1), stride=(1, 1))\n",
       "        )\n",
       "        (3): Conv2dNormActivation(\n",
       "          (0): Conv2d(2048, 256, kernel_size=(1, 1), stride=(1, 1))\n",
       "        )\n",
       "      )\n",
       "      (layer_blocks): ModuleList(\n",
       "        (0-3): 4 x Conv2dNormActivation(\n",
       "          (0): Conv2d(256, 256, kernel_size=(3, 3), stride=(1, 1), padding=(1, 1))\n",
       "        )\n",
       "      )\n",
       "      (extra_blocks): LastLevelMaxPool()\n",
       "    )\n",
       "  )\n",
       "  (rpn): RegionProposalNetwork(\n",
       "    (anchor_generator): AnchorGenerator()\n",
       "    (head): RPNHead(\n",
       "      (conv): Sequential(\n",
       "        (0): Conv2dNormActivation(\n",
       "          (0): Conv2d(256, 256, kernel_size=(3, 3), stride=(1, 1), padding=(1, 1))\n",
       "          (1): ReLU(inplace=True)\n",
       "        )\n",
       "      )\n",
       "      (cls_logits): Conv2d(256, 3, kernel_size=(1, 1), stride=(1, 1))\n",
       "      (bbox_pred): Conv2d(256, 12, kernel_size=(1, 1), stride=(1, 1))\n",
       "    )\n",
       "  )\n",
       "  (roi_heads): RoIHeads(\n",
       "    (box_roi_pool): MultiScaleRoIAlign(featmap_names=['0', '1', '2', '3'], output_size=(7, 7), sampling_ratio=2)\n",
       "    (box_head): TwoMLPHead(\n",
       "      (fc6): Linear(in_features=12544, out_features=1024, bias=True)\n",
       "      (fc7): Linear(in_features=1024, out_features=1024, bias=True)\n",
       "    )\n",
       "    (box_predictor): FastRCNNPredictor(\n",
       "      (cls_score): Linear(in_features=1024, out_features=91, bias=True)\n",
       "      (bbox_pred): Linear(in_features=1024, out_features=364, bias=True)\n",
       "    )\n",
       "    (mask_roi_pool): MultiScaleRoIAlign(featmap_names=['0', '1', '2', '3'], output_size=(14, 14), sampling_ratio=2)\n",
       "    (mask_head): MaskRCNNHeads(\n",
       "      (0): Conv2dNormActivation(\n",
       "        (0): Conv2d(256, 256, kernel_size=(3, 3), stride=(1, 1), padding=(1, 1))\n",
       "        (1): ReLU(inplace=True)\n",
       "      )\n",
       "      (1): Conv2dNormActivation(\n",
       "        (0): Conv2d(256, 256, kernel_size=(3, 3), stride=(1, 1), padding=(1, 1))\n",
       "        (1): ReLU(inplace=True)\n",
       "      )\n",
       "      (2): Conv2dNormActivation(\n",
       "        (0): Conv2d(256, 256, kernel_size=(3, 3), stride=(1, 1), padding=(1, 1))\n",
       "        (1): ReLU(inplace=True)\n",
       "      )\n",
       "      (3): Conv2dNormActivation(\n",
       "        (0): Conv2d(256, 256, kernel_size=(3, 3), stride=(1, 1), padding=(1, 1))\n",
       "        (1): ReLU(inplace=True)\n",
       "      )\n",
       "    )\n",
       "    (mask_predictor): MaskRCNNPredictor(\n",
       "      (conv5_mask): ConvTranspose2d(256, 256, kernel_size=(2, 2), stride=(2, 2))\n",
       "      (relu): ReLU(inplace=True)\n",
       "      (mask_fcn_logits): Conv2d(256, 91, kernel_size=(1, 1), stride=(1, 1))\n",
       "    )\n",
       "  )\n",
       ")"
      ]
     },
     "execution_count": 21,
     "metadata": {},
     "output_type": "execute_result"
    }
   ],
   "source": [
    "# Pretrained Mask R-CNN in PyTorch\n",
    "\n",
    "import torchvision\n",
    "from torchvision.models.detection import maskrcnn_resnet50_fpn\n",
    "\n",
    "model = maskrcnn_resnet50_fpn(pretrained=True)\n",
…
